"""=[ summary 사용 ]==============================================================================================

# Model: "sequential"
# _________________________________________________________________       
# Layer (type)                 Output Shape              Param #       
# =================================================================       
# dense (Dense)                (None, 5)                 10
# _________________________________________________________________       
# dense_1 (Dense)              (None, 3)                 18
# _________________________________________________________________       
# dense_2 (Dense)              (None, 4)                 16
# _________________________________________________________________       
# dense_3 (Dense)              (None, 2)                 10
# _________________________________________________________________       
# dense_4 (Dense)              (None, 1)                 3
# =================================================================       
# Total params: 57
# Trainable params: 57
# Non-trainable params: 0
# _________________________________________________________________ 

# 파이썬의 데이터 집계 함수 중의 하나인 model.summary()를 해서 레이어와 레이어 간의 연산 과정을 출력 해보면
# 뭔가 이상한 점을 느낄 수 있음
# input_dim이 1개고 바로 밑의 레이어의 노드 개수는 5개인데 Parameter 결과는 10이 나옴
# 1*5는 5인데 왜 10이 나왔을까?
# 그 밑에 과정들도 똑같음
…
